model_params/result_pdqn_5l_tlr_fluc_cl_lstm_net_params.pth (torch, 959919 bytes, 24 tensors)

actor.feature_layer.0.weight f4 [128, 31]
0	0x3d9c6c9f	0.07637905
1	0xbe09873b	-0.13430493
2	0x3e071fbe	0.13195702
3	0xbf8d97b1	-1.1061918
4	0x3eccfedb	0.4003819
5	0xbebee8f5	-0.37287107
6	0xc011de63	-2.2791984
7	0xbe27f276	-0.16401085
8	0xbfbc3b67	-1.4705628
9	0x3ed6d3ea	0.41958553
10	0x3d1c9758	0.03823027
11	0xbf18f715	-0.5975202
12	0x3dc92507	0.098215155
13	0x3e9d0927	0.30671045
14	0xbf1ab1b1	-0.60427386
15	0x3ef93c62	0.4867888
16	0xbd9d1fa3	-0.0767205
17	0xbd5c4cba	-0.05378411
18	0xbf480c49	-0.78143746
19	0xbe8b2d74	-0.27183115
20	0xbe81cbc5	-0.25350776
21	0xbd45a712	-0.048255034
22	0xbe170cd4	-0.14750987
23	0xbda62e4f	-0.081143014
24	0x3e551a1d	0.20810743
25	0x3e40dfe4	0.18835407
26	0x3eb0cdfb	0.3453215
27	0x3e3a469b	0.18190996
28	0x3e2ea69d	0.17055745
29	0xbed3af08	-0.41344476
30	0x3e54c480	0.20778084
31	0x3e970783	0.29497918
32	0xbe27ab88	-0.16374028
33	0x3f77b0f1	0.96754366
34	0xbe0a1bad	-0.1348712
35	0xbdccc2ff	-0.0999813
36	0x3e8d9e02	0.27659613
37	0xc06098db	-3.5093296
38	0x3e29345f	0.16523884
39	0x3f50086f	0.8126287
40	0x3c68e715	0.0142152505
41	0xbd4f748c	-0.050648257
42	0x3eb399e8	0.3507836
43	0xbe3813c7	-0.17976294
44	0xbd50d8c4	-0.050987974
45	0x3ee64f48	0.44982362
46	0x40eee49c	7.4654064
47	0x3e63d786	0.22250184
48	0x3f903d70	1.1268749
49	0x3e1b25be	0.15151116
50	0x3b9da107	0.0048104557
51	0x3e9d5120	0.30725956
52	0xbe1f9331	-0.15583493
53	0xbb49bb97	-0.0030781978
54	0x3e376503	0.17909627
55	0xbd3cede1	-0.046125297
56	0xbecf4ef7	-0.40489933
57	0xbf2248a6	-0.633921
58	0xbdc4d964	-0.096117765
59	0xbdbb491f	-0.09144806
60	0xbdcf71ad	-0.10129104
61	0x3d7991ce	0.060930066
62	0xbdda3ad3	-0.10655751
63	0xbd6dc5fe	-0.05805015
64	0xbdfa26cc	-0.12214431
65	0x3db17b25	0.08666066
66	0x3da0d038	0.078522146
67	0x3d4de38a	0.050265826
68	0x3e086b10	0.13322091
69	0xbe331552	-0.17488602
70	0x3e0c6610	0.13710809
71	0xbd0c4a6a	-0.034250654
72	0xbcea3f90	-0.028594762
73	0x3e08517f	0.13312338
74	0x3e68a614	0.22719604
75	0x3e5d5b7e	0.21616933
76	0x3dce6c65	0.10079268
77	0x3e2af180	0.16693687
78	0xbdfc5824	-0.12321499
79	0xbc3b4be0	-0.011431664
80	0xbdf6b54a	-0.12046297
81	0xbc1c70fa	-0.00954842
82	0xbda36934	-0.0797905
83	0x3d8dbf19	0.069212146
84	0x3dbbca6b	0.091694675
85	0xbe1fd420	-0.15608263
86	0xbe00f255	-0.12592442
87	0xbd6241a2	-0.055238374
88	0x3cc4af30	0.024009317
89	0xbdcfd242	-0.10147525
90	0xbdeb25a3	-0.11481788
91	0xbd145ab6	-0.03621932
92	0xbce07699	-0.027400302
93	0x3f9f9e5a	1.24702
94	0xbe082539	-0.1329545
95	0x3fcae8f9	1.5852348
96	0xc0c8b670	-6.27227
97	0xbcfe84cd	-0.031069184
98	0xc009e31e	-2.1544871
99	0xbe8ffc79	-0.2812231
100	0xbd53c290	-0.05169922
101	0xbfb59d7e	-1.4188688
102	0x3f74272f	0.9537229
103	0xbe0d18e6	-0.13779029
104	0x3e620d21	0.22075321
105	0x409d590b	4.9171195
106	0xbe06f039	-0.13177575
107	0xbf629738	-0.8851199
108	0x3e2ec95a	0.17068997
109	0xbca94c4e	-0.020666268
110	0x3ec431f4	0.3831936
111	0x3e00af25	0.12566812
112	0x3d11303e	0.035446398
113	0x3f9a7082	1.2065585
114	0xbdd4941d	-0.10379813
115	0x3e9dd831	0.30829003
116	0xbf90fa9b	-1.1326479
117	0xbe5c76aa	-0.21529642
118	0x3e5a9635	0.21346362
119	0x3dbef2d6	0.09323661
120	0x3cf6aa5c	0.03011053
121	0xbcb2e361	-0.021836938
122	0x3e559e9e	0.20861289
123	0x3d23a0cd	0.039948273
124	0xbe64b545	-0.22334774
125	0x3e26d2c2	0.16291335
126	0xbd012c40	-0.03153634
127	0x3f661046	0.8986858
128	0x3e027b7f	0.12742423
129	0xbedbe1b3	-0.42945632
130	0xbf47f3d2	-0.78106415
131	0xbebf335b	-0.3734387
132	0x3f2376c9	0.63853127
133	0x3e7face8	0.24968302
134	0xbe16b22a	-0.14716402
135	0x3f2c0f3a	0.67210734
136	0x40c5c64b	6.1804557
137	0x3daf0007	0.08544927
138	0x3f390dda	0.7228676
139	0x3ec6deb1	0.38841775
140	0xbecc43a5	-0.3989536
141	0xbfd50a24	-1.664372
142	0xbf61d2f6	-0.88212526
143	0x3d49f6bb	0.049307566
144	0x3da6516d	0.081209995
145	0xbd16c6d2	-0.036810704
146	0xbe0c2d98	-0.13689268
147	0x3cd9631a	0.026536513
148	0xbdfc1b94	-0.123099476
149	0xbe9cb3e2	-0.3060599
150	0xbeaff2e8	-0.3436501
151	0xbdaf5a3f	-0.08562135
152	0x3ec2d9ab	0.38056692
153	0x3eba0272	0.3632999
154	0xbeca888c	-0.39557302
155	0xbe553a90	-0.20823121
156	0xbd368ab4	-0.04456587
157	0xbe51d1ac	-0.2049014
158	0xbd3b6572	-0.045751043
159	0x3df4980e	0.11943065
160	0xbc70c380	-0.014695048
161	0x3d92251e	0.07135986
162	0x3aecd86e	0.0018069872
163	0x3d9dbb2c	0.07701716
164	0x3e45c785	0.19314392
165	0x3cdaecd0	0.02672425
166	0xbaaadc41	-0.0013035611
167	0xbd28ff4b	-0.04125909
168	0x3e132311	0.14368846
169	0x3df43607	0.119243674
170	0xbdbed40e	-0.0931779
171	0x3e120ebe	0.14263436
172	0x3cbaa800	0.022785187
173	0xbd67a8a2	-0.056557305
174	0xbe07de97	-0.13268505
175	0xbe583b26	-0.21116313
176	0xbe107911	-0.14108683
177	0xbe3a4bde	-0.18193004
178	0xbdf54afa	-0.11977191
179	0xbd563c14	-0.05230339
180	0xbe18a9c3	-0.14908509
181	0xbe19c056	-0.15014777
182	0xbd53b106	-0.051682495
183	0xbdf492b2	-0.119420424
184	0x3c74f161	0.014950127
185	0xba8cc174	-0.0010738806
186	0xbe7b0dc3	-0.24516968
187	0x3de6d5bc	0.11271235
188	0x3f3f0188	0.7461171
189	0x3eea92c5	0.458151
190	0x3c253d68	0.010085441
191	0xbf506ea8	-0.8141885
192	0x3e824964	0.25446618
193	0x3c87ec1a	0.016592074
194	0xbf360d25	-0.71113807
195	0x3e7f89de	0.24954936
196	0x3d04f868	0.03246346
197	0x3e262424	0.16224724
198	0x3fdb832a	1.7149403
199	0xbdb23fe6	-0.08703594
200	0x3ed906a2	0.42387873
201	0x405a3e26	3.4100432
202	0xbe45c6ba	-0.1931409
203	0xbd9d4bbc	-0.07680461
204	0x3fbd684d	1.4797455
205	0x3caf45b9	0.021395551
206	0x3e797808	0.24362195
207	0x3e9ef695	0.31047502
208	0x3cc95495	0.024576465
209	0xbe7898ef	-0.2427709
210	0x3eb1e42d	0.34744397
211	0x3e5f436c	0.21803063
212	0xbbf6289e	-0.007512166
213	0xbef6413a	-0.4809664
214	0xbe04408d	-0.12915249
215	0x3d92c2ca	0.07166059
216	0xbe240e3d	-0.16021056
217	0xbfb2c866	-1.3967407
218	0xbe085099	-0.13311996
219	0xbe325576	-0.17415413
220	0x3d489f46	0.04898002
221	0x3e65d681	0.22445108
222	0xbf8fc10c	-1.1230788
223	0x3eb88d66	0.36045378
224	0xbe06994b	-0.13144414
225	0x3e59cd4b	0.2126972
226	0x3e9ecd8b	0.31016192
227	0x3c36dd80	0.011161208
228	0x3d08654f	0.03329974
229	0xbc201ba9	-0.00977222
230	0x3cffc732	0.031222913
231	0xbf99b7d0	-1.200922
232	0x3e83bd2a	0.25730258
233	0xbd3eb126	-0.04655566
234	0xbf719838	-0.9437289
235	0xbeae9030	-0.3409438
236	0xbd4b63c1	-0.04965568
237	0x3f690183	0.9101793
238	0x3d4b340a	0.049610175
239	0x3c704a6a	0.014666179
240	0xbcb4736c	-0.022027694
241	0x3e028a19	0.12747993
242	0x3e797e30	0.24364543
243	0x3ea6a1ad	0.32545224
244	0xbeca85bc	-0.39555156
245	0x3e512ac0	0.20426464
246	0x3e165738	0.14681709
247	0x3e023722	0.12716344
248	0x3e038841	0.12844945
249	0xbe25eea4	-0.16204315
250	0x3fa18a43	1.2620319
251	0xbf1295f1	-0.5726004
252	0xbe4b3a06	-0.19846353
253	0x3e05abfb	0.13053887
254	0x3e630d06	0.22172937
255	0x38d81585	0.00010303691

actor.feature_layer.0.bias f4 [128]
0	0xbe0bb391	-0.13642718
1	0x3e22c9e1	0.15897323
2	0xbe32d8ad	-0.17465468
3	0xbda8ae37	-0.08236354
4	0xbe85edd7	-0.2615802
5	0xbe31d202	-0.17365268
6	0xbd73c462	-0.059513457
7	0xbceb2240	-0.028702855
8	0x3de12e5b	0.1099517
9	0xbc4e59e0	-0.01259467
10	0x3d39d9f7	0.045373883
11	0xbd0e0c2d	-0.03467958
12	0x3e343861	0.17599632
13	0xbed52f34	-0.41637576
14	0x3da3f773	0.080061816
15	0x3d3e7125	0.04649462
16	0xbed80854	-0.42193854
17	0xbdfe3fd8	-0.12414521
18	0xbe6402c0	-0.22266674
19	0x3ea55f05	0.32299057
20	0x3e233f58	0.15942132
21	0xbe6de05c	-0.23230118
22	0xbe488efa	-0.19585791
23	0xbdc17d5b	-0.09447738
24	0xbd5e283b	-0.054237586
25	0xbe1e18dc	-0.1543917
26	0xbc9855a5	-0.018595526
27	0xbdba6815	-0.09101883
28	0xbd17cd66	-0.037061118
29	0xbdfb1744	-0.12260297
30	0xbda1b501	-0.07895852
31	0x3e5dcbc5	0.21659763
32	0xbe0340f4	-0.12817746
33	0xbe9b60f9	-0.30347422
34	0xbe027878	-0.12741268
35	0xbd47a722	-0.048743375
36	0xbea30885	-0.31842437
37	0xbcc5fecf	-0.024169354
38	0xbd9448b2	-0.07240428
39	0x3ea81cfe	0.3283462
40	0x3d5d7969	0.054070864
41	0xbe51edb6	-0.20500836
42	0xbd04a91d	-0.03238784
43	0xbe0ec6bc	-0.13942999
44	0x3d8bb953	0.06822457
45	0xbdec56db	-0.11540004
46	0x3e41b3df	0.18916272
47	0xbeaab390	-0.3334012
48	0x3d9c728f	0.07639038
49	0xbe732930	-0.2374618
50	0x3d70230a	0.058627166
51	0x3e38f322	0.18061498
52	0xbea668bf	-0.3250179
53	0x3e9ee7bb	0.3103617
54	0xbd133892	-0.03594262
55	0x3de82ee1	0.113370664
56	0x3d0293e6	0.03187933
57	0x3c6ba1ed	0.014381868
58	0xbe51d0a7	-0.20489751
59	0x3df26935	0.11836473
60	0xbe5af460	-0.21382284
61	0xbe08a7c0	-0.13345242
62	0xbe496208	-0.19666302
63	0x3ddf541f	0.10904717
64	0x3df9a3f7	0.12189477
65	0x3e568781	0.20950128
66	0xbdb4a251	-0.08820022
67	0x3decf84b	0.115707956
68	0xbc6f2dee	-0.014598353
69	0x3de56fe4	0.11202982
70	0x3e8acdf7	0.27110264
71	0xbccbb529	-0.024866657
72	0x3de70afa	0.112813905
73	0xbe003b8a	-0.12522712
74	0x3e0a24b7	0.13490568
75	0xbd44898c	-0.047982737
76	0x3e80f558	0.25187182
77	0xbe829c65	-0.25509945
78	0xbe193ffd	-0.14965816
79	0x3db9dcd5	0.090753235
80	0xbdc4185d	-0.095749594
81	0xbd8976fd	-0.06712148
82	0x3d301737	0.04299089
83	0xbd23370f	-0.03984743
84	0x3e1d6cd4	0.15373546
85	0xbeb66c4d	-0.35629502
86	0xbe2221ef	-0.15833257
87	0x3deb6993	0.11494746
88	0x3e2fce4a	0.17168537
89	0xbe435df9	-0.19078816
90	0xbe7ece78	-0.24883449
91	0x3db55068	0.08853227
92	0xbd2a8679	-0.04163215
93	0x3e43c9ff	0.19120024
94	0xbd474f6b	-0.048659723
95	0xbe103025	-0.14080866
96	0x3ddf7060	0.10910106
97	0xbcd9d4de	-0.02659076
98	0x3d27ff5a	0.041015007
99	0xbee3bc6e	-0.44479698
100	0xbe7ba09e	-0.2457299
101	0xbc3f7d9f	-0.011687665
102	0x3d4a7380	0.049426556
103	0xbd94a67b	-0.07258316
104	0xbaa7dee4	-0.0012807515
105	0x3d8b69d4	0.068072945
106	0xbd866706	-0.06562619
107	0xbd665b3f	-0.056239363
108	0xbc89671f	-0.016772805
109	0x3d07afc2	0.0331266
110	0xbd88f2b7	-0.06686919
111	0xbdc5f109	-0.096651144
112	0x3dda598b	0.1066161
113	0xbe9148ee	-0.28375953
114	0xbe0503fc	-0.12989801
115	0x3d89e5dd	0.06733296
116	0xbdbf4ca8	-0.09340793
117	0xbda4466f	-0.08021247
118	0x3cda2ac9	0.02663173
119	0x3d95f7da	0.073226646
120	0xbda2d5df	-0.07950949
121	0xbdad26e8	-0.084546864
122	0xbdb9e31f	-0.09076523
123	0x3e976d5f	0.2957563
124	0xbd538cd2	-0.05164797
125	0x3d476fb6	0.04869052
126	0x3d87caa5	0.06630448
127	0xbd9c451a	-0.076303676

actor.feature_layer.2.weight f4 [256, 128]
0	0x3b08acdc	0.0020854985
1	0xbadf8b66	-0.0017055094
2	0x3d7a5756	0.061118446
3	0x3d3365f6	0.04379841
4	0xbd5a00ad	-0.0532233
5	0x3dad6f43	0.08468487
6	0xbdcc1fa5	-0.09966973
7	0x3bec9c57	0.0072207856
8	0x3c127d56	0.008941015
9	0xbd425919	-0.04744825
10	0xbc53bbe9	-0.012923219
11	0xbd851ee3	-0.06500032
12	0xbd1cc17d	-0.038270462
13	0xbe13bc37	-0.14427267
14	0xbd4ae0dc	-0.04953085
15	0x3cbcb4dd	0.023035461
16	0x3bb42f8a	0.005498831
17	0xbdcc54d4	-0.09977117
18	0x3d384980	0.04499197
19	0x3d1a72ef	0.037707265
20	0xbd1ba87f	-0.038002487
21	0xbdc3b59d	-0.09556124
22	0x3d132467	0.035923388
23	0xbdc8297a	-0.09773536
24	0xbd7f1101	-0.062272076
25	0xbd643cae	-0.05572193
26	0xbcbe2208	-0.023209587
27	0xbdea5817	-0.11442583
28	0xbdcdec91	-0.10054887
29	0xbd6fa398	-0.058505625
30	0x3daff67d	0.08591936
31	0xbc83c610	-0.016085654
32	0xbe1e3406	-0.15449533
33	0x3d00d606	0.03145411
34	0xb9ae1000	-0.00033199787
35	0xbc879b65	-0.01655359
36	0xbd54ad7d	-0.051923264
37	0xbcd697d0	-0.026195437
38	0xbcfa212a	-0.030533392
39	0xbd9302b7	-0.07178252
40	0xbdca21c3	-0.09869721
41	0xbd8a7ead	-0.06762443
42	0xbca9595a	-0.020672489
43	0xbd947754	-0.072493225
44	0xbd84c1ee	-0.06482302
45	0xbc48d153	-0.012256938
46	0xbd0c71c2	-0.034288175
47	0xbdaf5230	-0.08560598
48	0xbd863d33	-0.065546416
49	0x3cdbdebc	0.026839606
50	0xbcdfa6ea	-0.02730127
51	0xbdd7b328	-0.10532218
52	0xbc31c306	-0.01084972
53	0xbde78ac6	-0.11305766
54	0xbe1a5c70	-0.15074325
55	0x3d1bd052	0.038040467
56	0xbdd04e28	-0.10171157
57	0x3ccfe474	0.02537749
58	0xbe098126	-0.13428172
59	0xbccccedf	-0.025000988
60	0x3d42f21f	0.047594186
61	0xbd59fd51	-0.053220097
62	0xbd403718	-0.04692754
63	0xbdcf02e6	-0.10107975
64	0x3ce117e3	0.02747721
65	0xbcad34ea	-0.021143395
66	0x3d87acf6	0.066247866
67	0xbdff1d35	-0.12456743
68	0x3cb7d656	0.02244107
69	0xbc800b1b	-0.015630296
70	0xbd9fd19b	-0.07803651
71	0xbd453629	-0.048147354
72	0x3c36a8cc	0.011148643
73	0xbde78f5a	-0.11306639
74	0xbe00a362	-0.12562326
75	0xbd579366	-0.052630804
76	0xbe193cb7	-0.14964567
77	0xbcae9678	-0.021311983
78	0x3d2320ca	0.039826192
79	0xbd9e6be4	-0.07735422
80	0xbd9189b6	-0.071063444
81	0xbbfffce0	-0.0078121275
82	0xbdc35c48	-0.095390856
83	0xbc8e364b	-0.017359873
84	0x3c29f059	0.010372245
85	0xbdc6eabc	-0.09712741
86	0xbc9940e1	-0.018707694
87	0xbd97fd77	-0.074213915
88	0xbdbd748c	-0.09250745
89	0xbd8ee73a	-0.06977697
90	0xbd2a3388	-0.04155305
91	0xbe04e033	-0.1297615
92	0xbcbe3ec5	-0.02322329
93	0xbdff8a9c	-0.124776095
94	0xbd499adf	-0.049219962
95	0xbd8213df	-0.06351446
96	0xbc872408	-0.016496673
97	0x3d8b001f	0.067871325
98	0x3d321f92	0.04348714
99	0x3d037682	0.03209544
100	0xbc906ead	-0.0176309
101	0xbd1bb1b6	-0.038011275
102	0xbc8149ac	-0.0157822
103	0xbddad015	-0.1068422
104	0xbe29f85b	-0.16598646
105	0xbda65d8d	-0.08123312
106	0xbc66cc89	-0.014086851
107	0x3d2fa10a	0.04287819
108	0x3ce4dc16	0.027936976
109	0x3c5b6ce1	0.013392658
110	0x3c989d0b	0.018629571
111	0xbc1b7f0e	-0.009490741
112	0xbd8dfacb	-0.069326006
113	0xbc38e7c3	-0.011285725
114	0xbdb5d242	-0.08877994
115	0xbded7ca4	-0.11596039
116	0xbae12898	-0.0017178236
117	0xbdc38f00	-0.095487595
118	0x3cd6ece1	0.026236
119	0xbc79b8e0	-0.015241832
120	0xbbe7c659	-0.0070732054
121	0x3d850456	0.06494968
122	0xbc50de70	-0.012748346
123	0x3ccffec0	0.025390029
124	0xbb58b114	-0.003306453
125	0xbca17e06	-0.019713413
126	0x3c6b609a	0.014366293
127	0xbe1382a3	-0.14405303
128	0xbd680281	-0.056643013
129	0xbd0bba2c	-0.034113094
130	0xbd710067	-0.058838274
131	0xbca0e471	-0.01964018
132	0xbb5e0f07	-0.0033883469
133	0x3d140c50	0.036144555
134	0xbd8595e5	-0.06522731
135	0xbd73292b	-0.059365433
136	0xbd7a0650	-0.061041176
137	0xbcf3952c	-0.029734217
138	0x3d7db37d	0.06193875
139	0xbe10fdb1	-0.14159276
140	0x3c5885c6	0.013215488
141	0xbc367b79	-0.011137837
142	0x3cdd77a4	0.027034588
143	0x3cae3060	0.021263301
144	0xbd82d46c	-0.063881725
145	0xbd6fa75e	-0.058509223
146	0xbc9df4b1	-0.019281717
147	0xbcfa22df	-0.030534206
148	0xbdc21ade	-0.09477781
149	0xbd2353a8	-0.039874703
150	0xbd8f5e85	-0.0700045
151	0xbd30ac6c	-0.043133184
152	0xbcb1ecca	-0.021719355
153	0xbdff5caa	-0.12468846
154	0x3d66a5ee	0.056310587
155	0xbdd519a3	-0.104052804
156	0xbcaaee4e	-0.020865586
157	0xbc1839fb	-0.009291167
158	0x3db15ff5	0.086608805
159	0xbc4dc008	-0.012557991
160	0x39d46cc0	0.00040516816
161	0xbdb208c7	-0.086930804
162	0x3c9f5250	0.01944843
163	0xbdac3fa0	-0.08410573
164	0xbcd83f32	-0.026397321
165	0x3d84062b	0.06446489
166	0xbd989185	-0.07449631
167	0xbda4679b	-0.08027574
168	0x3d6d06da	0.057867862
169	0xbd8ca013	-0.06866469
170	0x3bf15827	0.007365245
171	0xbd73db4f	-0.05953532
172	0x3c650943	0.013979259
173	0x3d0b4045	0.03399684
174	0xbc5163d5	-0.0127801495
175	0x3d07f088	0.033188373
176	0xbc847599	-0.016169356
177	0x3cbe84b7	0.023256643
178	0xbdb2f6ce	-0.087384805
179	0x3d27b9dc	0.040948734
180	0x3d816aaa	0.06319173
181	0xbd840db4	-0.06447926
182	0xbdd4bdea	-0.10387786
183	0xbc18238b	-0.009285818
184	0xbd2b8e3c	-0.041883692
185	0xbdd36708	-0.10322386
186	0xbdb05560	-0.08610034
187	0xbd0a113c	-0.033707842
188	0xbd485b59	-0.04891524
189	0x3d64d01b	0.055862527
190	0xbd01677a	-0.031592824
191	0x3d0b8ba0	0.034068704
192	0xbd80824a	-0.06274851
193	0xbe06ef2c	-0.13177174
194	0xbd80098a	-0.062518194
195	0xbd98763d	-0.07444427
196	0xbdefe120	-0.11712861
197	0xbdb0cc69	-0.08632738
198	0xbdc20e03	-0.09475329
199	0x3cd70d98	0.0262516
200	0xbd14dc0b	-0.03634266
201	0xbc2aa4c1	-0.010415257
202	0x3c8a399c	0.016873173
203	0xbdb133eb	-0.08652481
204	0x3c28786a	0.010282615
205	0x3d8bdc99	0.06829185
206	0x3d18d7c6	0.037315153
207	0xbdaf5414	-0.085609585
208	0xbbc632c9	-0.0060485345
209	0xbd920a77	-0.07130902
210	0x3d8201e6	0.06348018
211	0xbda17e5b	-0.078854285
212	0x3d96caca	0.07362898
213	0x3cd96c24	0.026540823
214	0xbda82ee4	-0.08212069
215	0xbdb610cf	-0.08889925
216	0x3d0ae058	0.033905357
217	0x3c4be53a	0.012444789
218	0xbc47e998	-0.012201689
219	0xbd1e1fda	-0.038604595
220	0x3cd69caa	0.02619775
221	0xbd319165	-0.04335155
222	0xbdaf512e	-0.08560406
223	0xbd77f453	-0.06053574
224	0xbbbb88b0	-0.0057230815
225	0x3d6f8ba3	0.058482777
226	0xbcb7ec46	-0.022451531
227	0xbd7ab6a2	-0.06120933
228	0xbce7c882	-0.028293852
229	0xbaf44299	-0.001863557
230	0x3bf4ceb0	0.007470928
231	0xbd9cbe93	-0.07653537
232	0xbe0a407c	-0.13501161
233	0xbd710666	-0.058843993
234	0x3ccabd9d	0.024748618
235	0xbd9103a1	-0.0708077
236	0x3d2888dd	0.041146148
237	0x3c4388f5	0.011934509
238	0xbd066ba4	-0.032817498
239	0x3d69c8b8	0.057076186
240	0x3c3fdaf3	0.011709916
241	0xbd8347e7	-0.06410199
242	0x3d846bc3	0.064658664
243	0x3d04b1b8	0.03239605
244	0x3c3aee77	0.0114093935
245	0xbdb97c2a	-0.090568855
246	0xbe017605	-0.12642677
247	0xbd68a29c	-0.0567957
248	0xbd83ab6d	-0.06429181
249	0x3db4d9c7	0.088306
250	0xbe02d761	-0.12777473
251	0xbc85eb84	-0.016347654
252	0x3c82ba0b	0.015957853
253	0x3d867587	0.06565385
254	0xbca7000c	-0.020385765
255	0xbd6b0b0e	-0.05738359

actor.feature_layer.2.bias f4 [256]
0	0xbd59a019	-0.053131197
1	0xbe27ae47	-0.16375075
2	0xbcb1d707	-0.021708978
3	0xbd0bf31a	-0.034167387
4	0xbda37af4	-0.07982436
5	0xbefed873	-0.49774513
6	0xbeac9c7c	-0.33713138
7	0x3ece0fbb	0.40246376
8	0xbe96a607	-0.29423544
9	0xbe33f8b6	-0.17575344
10	0xbedc993d	-0.43085662
11	0xbd81bfa2	-0.06335379
12	0xbe11ad0d	-0.1422617
13	0xbe7d8f17	-0.24761616
14	0xbd9ca18f	-0.07648002
15	0xbeb9f21b	-0.36317524
16	0xbf05fa24	-0.5233481
17	0xbe7290eb	-0.23688094
18	0xbde79cf5	-0.11309234
19	0xbe94a074	-0.29028666
20	0xba793460	-0.00095064007
21	0x3e09a3f5	0.13441451
22	0xbe2d502c	-0.16925114
23	0xbec3366a	-0.38127452
24	0x3ddccea4	0.10781601
25	0xbee668c5	-0.45001808
26	0x3ca2c512	0.019869361
27	0xbe2baf06	-0.16765985
28	0x3c58fc39	0.013243728
29	0xbe3c568c	-0.1839239
30	0xbebc0e3b	-0.36729607
31	0xbe2e6908	-0.17032254
32	0xbe359496	-0.17732462
33	0xbdb36d64	-0.08761099
34	0x3ed5a5a5	0.4172794
35	0x3ea57fd8	0.323241
36	0x3e4bb988	0.19894993
37	0x3ccd5887	0.025066627
38	0xbe1c8c30	-0.15287852
39	0x3ef17313	0.47158107
40	0xbed02ce4	-0.4065925
41	0x3e587dd6	0.21141753
42	0xbd0233cf	-0.03178769
43	0xbd96f2f3	-0.07370558
44	0xbe05d438	-0.13069236
45	0xbdb6ef6a	-0.08932383
46	0xbdb0f03b	-0.0863957
47	0x3d36ddeb	0.04464523
48	0x3e3775bf	0.1791601
49	0xbeba2795	-0.36358324
50	0x3f12b0e5	0.5730117
51	0xbddcad40	-0.10775232
52	0xbde9f231	-0.114231475
53	0xbbbc6d09	-0.0057503027
54	0x3e813406	0.25235003
55	0xbeac5b9e	-0.33663648
56	0xbe0db5f0	-0.13838935
57	0xbe8b8698	-0.27251124
58	0xbe6b207e	-0.22961614
59	0x3d88869b	0.06666299
60	0xbf2ecec4	-0.6828425
61	0xbe01a161	-0.12659217
62	0xbda98429	-0.08277161
63	0x3e91884b	0.28424296
64	0xbe1179ba	-0.14206591
65	0x3f010705	0.50401336
66	0xbec075c4	-0.37589848
67	0xbecbfd1e	-0.3984155
68	0xbf0bfe75	-0.54685146
69	0x3f31700d	0.693116
70	0xbe980999	-0.29694822
71	0xbe6e1944	-0.23251826
72	0x3f2073d5	0.62676746
73	0xbce8d87b	-0.028423538
74	0xbeb22c1f	-0.34799287
75	0xbe2ac329	-0.1667601
76	0xbd7a849d	-0.061161626
77	0xbf3fb0f5	-0.7487939
78	0xbeabe3ba	-0.3357218
79	0xbed4e654	-0.41581976
80	0xbf8276e3	-1.0192531
81	0xbf0d4705	-0.5518649
82	0x3d9c0bf8	0.0761947
83	0xbe29730b	-0.16547792
84	0xbe1c49af	-0.15262483
85	0xbdb533a2	-0.08847739
86	0xbd794f2e	-0.060866527
87	0x3d36068a	0.04443983
88	0xbc967cb0	-0.018370003
89	0xbdee5582	-0.11637403
90	0xbe02b40e	-0.12763998
91	0x3d99c04f	0.07507383
92	0xbea028ac	-0.3128103
93	0xbe93e2cb	-0.28883967
94	0xbd96e578	-0.073679864
95	0xbf12881f	-0.57238954
96	0xbe04c5c6	-0.1296607
97	0x3d2bd28f	0.04194885
98	0xbe467e39	-0.19384088
99	0x3e5aa797	0.21352993
100	0xbe69d523	-0.22835211
101	0xbe36c2a7	-0.17847691
102	0xbe939623	-0.28825483
103	0xbe7a08da	-0.24417439
104	0xbdf57b18	-0.11986369
105	0x3ed41ea6	0.41429633
106	0xbe1f2cdc	-0.15544456
107	0x3d866428	0.06562072
108	0xbedd97b0	-0.4327979
109	0xbec67c85	-0.38766876
110	0xbf1d283d	-0.61389524
111	0x3ec7dfc6	0.39037913
112	0xbe77fd32	-0.2421768
113	0x3f2a2fee	0.66479385
114	0xbde73fe6	-0.112914845
115	0xbe7074fd	-0.23482127
116	0x3f11aa2d	0.5690029
117	0x3f78fa39	0.9725681
118	0xbf3b5d41	-0.7318917
119	0xbe9a821f	-0.301774
120	0x3d641e55	0.05569299
121	0xbe1141ec	-0.14185303
122	0x3bfa7b6b	0.007644107
123	0xbe71cab8	-0.23612487
124	0x3dfdf006	0.123992965
125	0x3e981ee6	0.29711074
126	0xbeca790c	-0.39545476
127	0x3bcebb60	0.006308958
128	0xbdf45ac2	-0.11931373
129	0xbf4c6cfe	-0.7985381
130	0xbe878d77	-0.26475117
131	0xbe229a50	-0.15879178
132	0xbe80035d	-0.25002566
133	0xbe983786	-0.2972986
134	0xbc730d8c	-0.014834773
135	0xbde51343	-0.111853145
136	0x3f52d8f7	0.8236231
137	0xbe78a546	-0.24281797
138	0xbe25cb4f	-0.16190837
139	0xbea104fe	-0.3144912
140	0xbf32f386	-0.6990284
141	0xbbe5ca0f	-0.0070126127
142	0xbf356f77	-0.70873207
143	0x3f04dad1	0.5189639
144	0x3e664c3f	0.22490023
145	0xbce3002b	-0.027710041
146	0xbf0cf165	-0.5505584
147	0x3ecfe724	0.40606034
148	0xbd845180	-0.064608574
149	0xbca12ca7	-0.019674612
150	0x3b9838cc	0.0046454426
151	0xbdd8370a	-0.10557373
152	0x3ec94925	0.39313617
153	0xbed2d3e6	-0.4117729
154	0xbeca44e0	-0.39505672
155	0x3d096700	0.033545494
156	0x3c33d9e4	0.010977242
157	0x3e970db1	0.29502633
158	0xbd7b16fc	-0.061301216
159	0x3c493a7e	0.012282012
160	0xbe8f960f	-0.28044173
161	0x3e990036	0.29882973
162	0xbeab6370	-0.33474302
163	0x3ed36487	0.41287634
164	0x3e434133	0.1906784
165	0xbed6bdd9	-0.41941717
166	0xbed35053	-0.4127222
167	0x3effeb5d	0.49984255
168	0xbee21014	-0.44152892
169	0xbe24d057	-0.160951
170	0x3ee58ed7	0.4483554
171	0xbe216d0f	-0.15764259
172	0xbf43d1bf	-0.7649192
173	0xbcc59490	-0.024118692
174	0xbeb58052	-0.35449463
175	0xbe236bcf	-0.15959094
176	0x3f78e6e6	0.97227323
177	0x3c47e707	0.012201077
178	0x3c563c16	0.013075849
179	0xbe3dc5a3	-0.18532424
180	0x3e50b582	0.2038174
181	0xbf23686a	-0.638312
182	0xbe7ed446	-0.24885663
183	0xbf203d0b	-0.62593144
184	0x3f078d78	0.5295024
185	0x3f2debaa	0.6793772
186	0x3dc10754	0.09425226
187	0xbf4e9dff	-0.8070983
188	0x3e6c9d33	0.23106842
189	0xbf0b4bfa	-0.54412806
190	0xbe0fef73	-0.14056186
191	0xbf1600f8	-0.5859523
192	0xbf0abd78	-0.54195356
193	0xbecfe637	-0.40605327
194	0xbdc18e98	-0.09451026
195	0x3e1f3ee5	0.15551336
196	0xbdd86ea1	-0.10567976
197	0xbe76168d	-0.2403204
198	0xbe9e92b0	-0.3097129
199	0xbef73229	-0.48280457
200	0xbd79a6c4	-0.060950056
201	0xbd9b77a0	-0.07591176
202	0x3ecc2883	0.39874658
203	0xbdbb1f77	-0.09136861
204	0xbd99ea84	-0.075154334
205	0x3e11a3b5	0.14222606
206	0xbe2e5de2	-0.17028001
207	0x3e569e78	0.20958889
208	0x3f38c5a3	0.7217657
209	0xbe8ffb30	-0.28121328
210	0x3e590c28	0.21196043
211	0xbe0b789e	-0.1362023
212	0x3b81e2cf	0.0039638053
213	0xbe2d18ac	-0.16903943
214	0xbd80d289	-0.062901564
215	0xbd1d88b4	-0.03846045
216	0xbf14ad28	-0.58076715
217	0xbe2c4d95	-0.1682647
218	0x3e87dae4	0.26534188
219	0xbcccc2fa	-0.024995316
220	0xbe0c310b	-0.13690583
221	0x3ea8b792	0.32952553
222	0x3ec2b754	0.38030493
223	0xbf028368	-0.5098176
224	0xbdbf5c06	-0.09343724
225	0xbec6fc12	-0.3886419
226	0xbe34ddbe	-0.17662713
227	0xbd2250cd	-0.03962784
228	0xbeee4af4	-0.4654156
229	0xbe15da7b	-0.14634125
230	0xbeccddce	-0.40012974
231	0x3f120ce9	0.5705095
232	0xbeecd1d0	-0.46253824
233	0xbe329007	-0.17437755
234	0xbf147454	-0.5799
235	0xbdfe8c8f	-0.12429153
236	0xbf330ec1	-0.6994439
237	0xbec34e50	-0.38145685
238	0xbec34421	-0.38137916
239	0xbed35eeb	-0.41283354
240	0xbd2d8b80	-0.042369366
241	0xbd55cf36	-0.052199565
242	0x3d895d2e	0.06707226
243	0xbe4b469b	-0.19851153
244	0xbe6292ea	-0.22126356
245	0xbe2fddfc	-0.17174524
246	0xbd886c6c	-0.06661305
247	0x3e8e9d2c	0.27854288
248	0x3f89b8e3	1.0759548
249	0xbe4b5d82	-0.19859889
250	0x3f32ffeb	0.6992175
251	0xbf57d929	-0.84315735
252	0xbde28cb1	-0.11061991
253	0x3f267f81	0.65038306
254	0xbdb1ffed	-0.08691392
255	0xbf4edc4d	-0.808049

actor.feature_layer.4.weight f4 [3, 256]
0	0xbbb6d7b1	-0.0055799116
1	0xbd681c2e	-0.0566675
2	0xbf2c1f8f	-0.67235655
3	0xbd2861f0	-0.041109025
4	0xc00cd299	-2.2003539
5	0xbe8f9f4d	-0.28051224
6	0x3f275113	0.65358084
7	0x3e606963	0.21915202
8	0xbe924b61	-0.28573135
9	0x3ea505c8	0.32230973
10	0xbfa5f97a	-1.2966759
11	0x3bc51af2	0.006015175
12	0xbd2a4eb4	-0.041578963
13	0xbf6fca64	-0.936682
14	0x3c0a95a8	0.008458532
15	0x3f839dfc	1.0282588
16	0xbff1eabb	-1.8899759
17	0xbf58d3d3	-0.8469822
18	0x3d2932dc	0.04130827
19	0xbe815bba	-0.25265294
20	0x3c488ae4	0.012240145
21	0x3f7681ad	0.9629162
22	0xbf327a89	-0.69718224
23	0xbe8391c9	-0.25697163
24	0x3e8f1da3	0.279523
25	0x3dd54baa	0.104148224
26	0x3f43e431	0.7652007
27	0x3cb7e25a	0.0224468
28	0xbc16fe59	-0.009215915
29	0x3dbe212f	0.09283673
30	0xbdd052c1	-0.10172034
31	0xbe9f81ac	-0.3115362
32	0xbf50eb8e	-0.8160943
33	0xbd99124f	-0.07474195
34	0xbfe91786	-1.8210304
35	0xbf917638	-1.1364202
36	0xbeec4c1a	-0.4615181
37	0x3f4339aa	0.76259863
38	0x3f153cf3	0.58296126
39	0xbf0702bf	-0.52738565
40	0x3f1aa0ed	0.60401803
41	0x3efb31a7	0.4906132
42	0xbbb360de	-0.005474194
43	0xbc4b58c4	-0.0124113
44	0x3b4b39de	0.0031009833
45	0x3f57dcef	0.8432149
46	0xbd6c0798	-0.05762443
47	0x3e346424	0.17616326
48	0xbfa037c9	-1.2517024
49	0xbedcfdb2	-0.43162304
50	0xbe9066e3	-0.28203496
51	0x3dfaa452	0.12238373
52	0x3d671685	0.05641796
53	0x3c80cedf	0.015723644
54	0x3e211dff	0.15734099
55	0xbf5fcc62	-0.8742124
56	0xbf806937	-1.0032109
57	0x3cc0ace1	0.023519935
58	0xbf56b9c9	-0.83877236
59	0xbe85c9a1	-0.26130393
60	0xbf5d7efc	-0.8652189
61	0x3b8ad002	0.0042362222
62	0x3f17ef06	0.59349096
63	0xbeb3b920	-0.35102177
64	0x3d05131c	0.032488927
65	0xbe3c9a44	-0.18418223
66	0x3f121008	0.5705571
67	0xbc0e3e6f	-0.0086818775
68	0x3e16de1b	0.14733164
69	0x3e9843ca	0.2973922
70	0xbf43b649	-0.7645002
71	0xbf8fa668	-1.1222658
72	0x3cffc71a	0.031222869
73	0x3bb4589c	0.005503727
74	0xbfaa49fd	-1.330383
75	0x3d575e28	0.05258003
76	0xbc8367fa	-0.01604079
77	0x3ebc4a29	0.3677533
78	0x3ed04642	0.40678602
79	0x3eb32e1f	0.34996125
80	0xbe1f75ba	-0.15572253
81	0xbf4f4ed6	-0.8097967
82	0x3f3c7ea0	0.73630714
83	0xbce53965	-0.02798147
84	0xbfb5c7ca	-1.4201596
85	0xbd06fa35	-0.03295346
86	0x3cee09eb	0.029057464
87	0xbf0a4c51	-0.540227
88	0x3f0bd663	0.54624003
89	0xbf28154d	-0.656575
90	0x3d3da33c	0.04629825
91	0x3e6f1b93	0.23350362
92	0x3f5d65cc	0.86483455
93	0x3c672fa7	0.014110482
94	0xba23f5f4	-0.00062546064
95	0x3ec7baf5	0.39009824
96	0xbd1ea845	-0.038734693
97	0xbe989481	-0.298008
98	0xbf098493	-0.5371792
99	0x3f7365de	0.9507731
100	0xbfa8da68	-1.3191652
101	0x3f0c2802	0.5474855
102	0x3e4868a8	0.19571173
103	0xbef91fba	-0.48657018
104	0xbc7d5527	-0.015462196
105	0xbd08d2ca	-0.03340415
106	0x3c980fba	0.018562187
107	0xbd1cb939	-0.03826258
108	0xbfc5f0e1	-1.5464135
109	0x3ef43f96	0.47704762
110	0xbf149566	-0.58040464
111	0x3e559d31	0.20860745
112	0x3eac5cb9	0.33664492
113	0xbd19c3e0	-0.037540317
114	0x3fa290e3	1.2700466
115	0x3e8d0894	0.27545607
116	0x3dd93e69	0.10607607
117	0x3eed4aa5	0.46346012
118	0xbe7ae6f5	-0.24502166
119	0x3da0f094	0.07858387
120	0xbe5b9761	-0.21444465
121	0x3d35409c	0.04425107
122	0xbca53fa3	-0.020171946
123	0x3ec66b4a	0.3875373
124	0xbe4715c7	-0.19441901
125	0xbe145884	-0.14486891
126	0xbddb702e	-0.10714756
127	0x3d286785	0.04111435
128	0x3c9fd789	0.019511955
129	0x3f34aa6c	0.70572543
130	0xbee914c0	-0.45523643
131	0xbf858114	-1.0430017
132	0x3ec9ce10	0.39415026
133	0xbec8cff7	-0.39221165
134	0x3c69fd16	0.014281532
135	0xbe8e74e1	-0.27823547
136	0xbe6ea7bf	-0.23306178
137	0xbee3e4c9	-0.44510487
138	0x3f410b6b	0.7540805
139	0xbf6c9ba4	-0.9242499
140	0x3f28d617	0.65951675
141	0x3efde889	0.49591473
142	0xbd96de16	-0.07366578
143	0xbce0ebc6	-0.027456176
144	0xbe9f9e53	-0.3117548
145	0x3d452596	0.048131548
146	0xbe891d6e	-0.26780266
147	0xbe725f30	-0.23669124
148	0x3e86a955	0.26301065
149	0xbf4707c5	-0.7774623
150	0x3b6f3b08	0.0036503691
151	0xbfa75288	-1.3072062
152	0xbe2b681f	-0.16738938
153	0xbedfa816	-0.43682927
154	0xbf2b4656	-0.669042
155	0xbfe76600	-1.8078003
156	0xbc52672a	-0.012841979
157	0x3d7ae865	0.061256785
158	0xbd064e5c	-0.032789573
159	0xbf1fc886	-0.6241535
160	0xbfa2c4cf	-1.2716311
161	0x3f3b8e37	0.7326388
162	0xbe54f785	-0.20797546
163	0x3f101720	0.56285286
164	0xbd39ee98	-0.045393556
165	0x3e678d84	0.22612578
166	0x3dd37166	0.103243634
167	0xbf45ab3c	-0.7721441
168	0xbed9f895	-0.42572466
169	0x3e96c521	0.29447272
170	0x3dce5bde	0.10076116
171	0x3c5d83fc	0.013520237
172	0xbe183131	-0.14862515
173	0x3e4d576a	0.20052877
174	0x3f09a479	0.5376659
175	0x3ccdcb92	0.025121484
176	0xbc91ad8c	-0.017782949
177	0x3e068514	0.13136703
178	0xbb96f140	-0.004606396
179	0xbf58ce7b	-0.84690064
180	0x3ed2b097	0.41150352
181	0xbf651685	-0.8948749
182	0xbf564909	-0.8370519
183	0xbf717930	-0.9432554
184	0xbc7c405d	-0.015396205
185	0x3e7ad3c8	0.2449485
186	0x3eeada9b	0.45869908
187	0xbeb1a2f5	-0.3469464
188	0xbf50f43e	-0.81622684
189	0xbf7847f3	-0.96984786
190	0x3b584a04	0.00330031
191	0xbf4a04ca	-0.7891356
192	0xbe50ce6f	-0.20391248
193	0xbf35db84	-0.7103808
194	0xbfb1fcce	-1.3905275
195	0x3ef90465	0.48636165
196	0xbe84d395	-0.25942674
197	0xbf8ea3e9	-1.1143771
198	0xbde68f4a	-0.11257799
199	0xbf0c3ef2	-0.54783547
200	0x3c1f9c2b	0.009741823
201	0x3d690828	0.056892544
202	0x3e96c3b0	0.29446173
203	0x3f691e1e	0.9106158
204	0xbe3f4491	-0.186785
205	0x3f10785a	0.5643364
206	0x3f208dfe	0.6271666
207	0x3ed31001	0.41223148
208	0x3ee0acb4	0.43881762
209	0x3f0bc478	0.5459666
210	0xbf4148f5	-0.7550195
211	0xbd291d34	-0.041287616
212	0xbf3403e8	-0.7031846
213	0x3cf032c9	0.029321091
214	0x3d12ed94	0.035871103
215	0x3c28fa21	0.010313542
216	0xbf15d274	-0.5852425
217	0x3fd79212	1.6841452
218	0x3e822de6	0.25425643
219	0xbe8e3582	-0.27775198
220	0xbf38242b	-0.7193019
221	0x3e9cd6ea	0.30632716
222	0x3e5d4b4a	0.21610752
223	0xbd3f8977	-0.046761956
224	0xbe651d27	-0.22374402
225	0xbfb3333d	-1.4000012
226	0xbd0a5c89	-0.033779655
227	0x3bbfc165	0.005851912
228	0xbe0ae0b2	-0.13562277
229	0xbcdac0d0	-0.026703268
230	0xbf03298b	-0.51235265
231	0x3f210514	0.62898374
232	0x3e40695f	0.18790196
233	0x3dc583e3	0.09644296
234	0xc0198ca4	-2.399209
235	0x3edd5bfe	0.43234247
236	0x3f1477ee	0.579955
237	0xbe3c04e4	-0.1836124
238	0x3ef72354	0.4826914
239	0xbedaf482	-0.4276467
240	0xbd33cc5f	-0.043896075
241	0xbf082fcc	-0.5319793
242	0x3cf2bf9f	0.029632388
243	0xbf21abd2	-0.631528
244	0xc0280ac6	-2.6256576
245	0x3ee98db7	0.45615932
246	0x3daae57e	0.083445534
247	0x3799b5cc	1.8323677e-05
248	0x3eca50eb	0.3951486
249	0xbda2d951	-0.07951606
250	0x3df56cb3	0.11983623
251	0x3f33a0cf	0.7016725
252	0x3ced7f32	0.028991316
253	0x3ef956da	0.48699075
254	0xbb8af5c2	-0.0042407224
255	0xbf8bb183	-1.0913547

actor.feature_layer.4.bias f4 [3]
0	0xbd8c8f98	-0.06863326
1	0x3f5cecaa	0.8629862
2	0x3f0f2294	0.5591214

actor_target.feature_layer.0.weight f4 [128, 31]
0	0x3d9c6cc3	0.07637932
1	0xbe098743	-0.13430505
2	0x3e071fa3	0.13195662
3	0xbf8d977f	-1.1061858
4	0x3eccfec3	0.40038118
5	0xbebee949	-0.37287357
6	0xc011de6c	-2.2792006
7	0xbe27f261	-0.16401054
8	0xbfbc3bbd	-1.4705731
9	0x3ed6d3f4	0.41958582
10	0x3d1c9758	0.03823027
11	0xbf18f737	-0.5975222
12	0x3dc924d3	0.09821477
13	0x3e9d0904	0.3067094
14	0xbf1ab1cb	-0.6042754
15	0x3ef93c2a	0.48678714
16	0xbd9d1fac	-0.076720566
17	0xbd5c4d1f	-0.053784486
18	0xbf480bf7	-0.78143257
19	0xbe8b2d86	-0.2718317
20	0xbe81cb93	-0.25350627
21	0xbd45a713	-0.048255038
22	0xbe170c98	-0.14750898
23	0xbda62e09	-0.08114249
24	0x3e551a8b	0.20810907
25	0x3e40e006	0.18835458
26	0x3eb0ce59	0.3453243
27	0x3e3a46f5	0.1819113
28	0x3e2ea665	0.17055662
29	0xbed3aee0	-0.41344357
30	0x3e54c438	0.20777977
31	0x3e979126	0.29602927
32	0xbe27ab88	-0.16374028
33	0x3f779409	0.9671026
34	0xbe075f6b	-0.13219993
35	0xbdd2a04e	-0.10284482
36	0x3e8b7b5f	0.27242562
37	0xc060368a	-3.5033288
38	0x3e2c230d	0.16810246
39	0x3f4f8d35	0.8107484
40	0x3c32f0ed	0.010921699
41	0xbd4f748c	-0.050648257
42	0x3eb3c4d7	0.35111114
43	0xbe34ade2	-0.17644456
44	0xbd5c934f	-0.053851422
45	0x3ee3571e	0.44402403
46	0x40eee304	7.465212
47	0x3e66c632	0.22536543
48	0x3f901475	1.1256243
49	0x3e1e9105	0.15485008
50	0x3adb0637	0.0016710226
51	0x3e9fce70	0.31212187
52	0xbe20aa9c	-0.15690082
53	0xbad782e8	-0.0016442211
54	0x3e3a06e3	0.1816669
55	0xbd414b62	-0.04719103
56	0xbed2b2e0	-0.41152096
57	0xbf23faa3	-0.64054316
58	0xbdb4d701	-0.08830071
59	0xbdaf705a	-0.08566351
60	0xbdcae3f8	-0.09906763
61	0x3d857ec5	0.0651832
62	0xbdda3aa8	-0.10655719
63	0xbd6dc5fe	-0.05805015
64	0xbdfa26cc	-0.12214431
65	0x3db17b65	0.08666114
66	0x3da0d035	0.07852212
67	0x3d4de3aa	0.050265945
68	0x3e086b10	0.13322091
69	0xbe33152a	-0.17488542
70	0x3e0c6610	0.13710809
71	0xbd0c4aae	-0.034250908
72	0xbcea3f90	-0.028594762
73	0x3e0851e2	0.13312486
74	0x3e68a611	0.227196
75	0x3e5d5b70	0.21616912
76	0x3dce6cc6	0.10079341
77	0x3e2af180	0.16693687
78	0xbdfc57de	-0.12321447
79	0xbc3b4be6	-0.01143167
80	0xbdf6b54a	-0.12046297
81	0xbc1c710f	-0.00954844
82	0xbda3690d	-0.07979021
83	0x3d8dbf56	0.0692126
84	0x3dbbcad9	0.091695495
85	0xbe1fd3dc	-0.15608162
86	0xbe00f218	-0.12592351
87	0xbd6241a2	-0.055238374
88	0x3cc4af30	0.024009317
89	0xbdcfd233	-0.10147514
90	0xbdeb2585	-0.11481766
91	0xbd145a5c	-0.036218986
92	0xbce076c0	-0.027400374
93	0x3f9ef072	1.2417128
94	0xbe082539	-0.1329545
95	0x3fca3d5a	1.5799973
96	0xc0c8ba24	-6.2727222
97	0xbd03c96e	-0.03217452
98	0xc0093ce5	-2.1443417
99	0xbe8e0865	-0.2774078
100	0xbd4f3b9e	-0.050593965
101	0xbfb6aff6	-1.4272449
102	0x3f72d7de	0.9486064
103	0xbe0d18e6	-0.13779029
104	0x3e65dd50	0.22447705
105	0x409d5d97	4.9176745
106	0xbe081202	-0.1328812
107	0xbf60372c	-0.87584186
108	0x3e304178	0.17212474
109	0xbca03e5b	-0.019560983
110	0x3ebf87fb	0.37408432
111	0x3e0288c9	0.12747492
112	0x3cfc4e36	0.030799013
113	0x3f9ac195	1.2090327
114	0xbdd7973f	-0.10526895
115	0x3e9e9ad7	0.30977508
116	0xbf91351e	-1.1344335
117	0xbe5df83f	-0.2167673
118	0x3e59b4c0	0.21260357
119	0x3dbd2fe7	0.09237652
120	0x3d043b69	0.03228322
121	0xbd076942	-0.033059366
122	0x3e6051f2	0.2190626
123	0x3d25943a	0.040424563
124	0xbe64b515	-0.22334702
125	0x3e26d2c2	0.16291335
126	0xbd012c1a	-0.0315362
127	0x3f661058	0.8986869
128	0x3e027b5b	0.12742369
129	0xbedbe1b4	-0.42945635
130	0xbf47f3bf	-0.781063
131	0xbebf331e	-0.37343687
132	0x3f23771c	0.6385362
133	0x3e7fac9a	0.24968186
134	0xbe16b22a	-0.14716402
135	0x3f2c0f80	0.6721115
136	0x40c5c653	6.1804595
137	0x3daeffd9	0.08544893
138	0x3f390e11	0.7228709
139	0x3ec6de67	0.38841555
140	0xbecc43a7	-0.39895365
141	0xbfd50a24	-1.664372
142	0xbf61d2cd	-0.8821228
143	0x3d49f697	0.049307432
144	0x3da65194	0.081210285
145	0xbd16c6ac	-0.036810562
146	0xbe0c2d63	-0.13689189
147	0x3cd9636b	0.026536664
148	0xbdfc1b52	-0.123098984
149	0xbe9cb3dc	-0.30605972
150	0xbeaff2d1	-0.34364942
151	0xbdaf5a15	-0.08562104
152	0x3ec2d9e2	0.38056856
153	0x3eba0299	0.36330107
154	0xbeca88ae	-0.39557403
155	0xbe553a94	-0.20823127
156	0xbd368ab6	-0.04456588
157	0xbe51d188	-0.20490086
158	0xbd3b654a	-0.045750894
159	0x3df497e2	0.11943032
160	0xbc70c36a	-0.014695028
161	0x3d922583	0.07136061
162	0x3aecd8ac	0.0018069944
163	0x3d9dbb2c	0.07701716
164	0x3e45c77f	0.19314383
165	0x3cdaecd0	0.02672425
166	0xbaaadc15	-0.001303556
167	0xbd28ff84	-0.041259304
168	0x3e132308	0.14368832
169	0x3df43639	0.11924405
170	0xbdbed431	-0.09317816
171	0x3e120edb	0.1426348
172	0x3cbaa839	0.022785293
173	0xbd67a88d	-0.056557227
174	0xbe07dea6	-0.13268527
175	0xbe583af0	-0.21116233
176	0xbe107911	-0.14108683
177	0xbe3a4ba6	-0.1819292
178	0xbdf54afa	-0.11977191
179	0xbd563c14	-0.05230339
180	0xbe18a9c3	-0.14908509
181	0xbe19c056	-0.15014777
182	0xbd53b0d4	-0.05168231
183	0xbdf492cd	-0.119420625
184	0x3c74f156	0.014950117
185	0xba8cc16f	-0.00107388
186	0xbe7c61eb	-0.24646728
187	0x3de6d5bc	0.11271235
188	0x3f3f5abd	0.7474783
189	0x3ee902d0	0.45509958
190	0x3c5a9cec	0.013343077
191	0xbf509581	-0.81478125
192	0x3e83fd58	0.25779223
193	0x3c5a78c7	0.01333446
194	0xbf3648f8	-0.7120509
195	0x3e7ef8cc	0.24899596
196	0x3d04f868	0.03246346
197	0x3e2a6b06	0.16642389
198	0x3fdcfafc	1.7264094
199	0xbdab93fe	-0.08377837
200	0x3ed94644	0.4243642
201	0x405a50ee	3.4111896
202	0xbe491cbb	-0.19639866
203	0xbd9bb1c2	-0.07602264
204	0x3fbd1ef4	1.4775071
205	0x3cac4304	0.02102805
206	0x3e738bab	0.23783748
207	0x3e9ca477	0.30594227
208	0x3ccb3405	0.024805078
209	0xbe7c9b9f	-0.2466874
210	0x3eaf9211	0.34291127
211	0x3e5cf843	0.2157908
212	0xbc1fc7a4	-0.009752188
213	0xbef3c2a1	-0.47609428
214	0xbdfe4c1b	-0.1241686
215	0x3d93f043	0.07223561
216	0xbe20e6f2	-0.15713099
217	0xbfb2e9b3	-1.3977569
218	0xbe085099	-0.13311996
219	0xbe2c07e6	-0.16799888
220	0x3d6cd899	0.05782375
221	0x3e66f6f3	0.22555141
222	0xbf8fb660	-1.1227531
223	0x3eb597c2	0.35467345
224	0xbe07b9b7	-0.13254438
225	0x3e5ff081	0.21869089
226	0x3e9fd937	0.3122041
227	0x3c36dd86	0.011161214
228	0x3d14fed8	0.03637585
229	0xbbb4fcd5	-0.005523304
230	0x3d046531	0.032323066
231	0xbf999998	-1.1999998
232	0x3e842e25	0.25816455
233	0xbd4332bf	-0.047655817
234	0xbf72b703	-0.94810504
235	0xbeaf1b83	-0.34200677
236	0xbd4ecece	-0.050490193
237	0x3f68bc13	0.9091198
238	0x3d450aa0	0.048105836
239	0x3c861192	0.0163658
240	0xbcfc2a1e	-0.030781802
241	0x3e00ffc2	0.12597564
242	0x3e7b6feb	0.24554412
243	0x3ea79a8f	0.32735106
244	0xbeca53e0	-0.39517117
245	0x3e57174e	0.21004984
246	0x3e10f49e	0.14155814
247	0x3dfd3732	0.12364043
248	0x3e03e24c	0.12879294
249	0xbe25eea4	-0.16204315
250	0x3fa12509	1.2589427
251	0xbf10de33	-0.5658905
252	0xbe4bda82	-0.19907573
253	0x3e08b1b0	0.13349032
254	0x3e668c9e	0.22514579
255	0x3a3b6b3b	0.00071494625

actor_target.feature_layer.0.bias f4 [128]
0	0xbe0bb383	-0.13642697
1	0x3e25b88f	0.16183685
2	0xbe32d89e	-0.17465445
3	0xbda66ac5	-0.081258334
4	0xbe85edc7	-0.26157972
5	0xbe31d1ba	-0.1736516
6	0xbd808e2a	-0.06277116
7	0xbcf4256f	-0.029803006
8	0x3de26f38	0.110563695
9	0xbc2259fe	-0.009909151
10	0x3d4020f4	0.046906427
11	0xbd081062	-0.03321875
12	0x3e360630	0.17775798
13	0xbed52f40	-0.4163761
14	0x3da412e3	0.08011415
15	0x3d3c24c4	0.0459335
16	0xbed7ec06	-0.4217226
17	0xbdfd940b	-0.123817526
18	0xbe64108d	-0.22271939
19	0x3ea68e6f	0.32530543
20	0x3e23b28d	0.1598608
21	0xbe6f5d90	-0.23375535
22	0xbe488ed3	-0.19585733
23	0xbdc2d0d7	-0.09512489
24	0xbd4de1be	-0.050264113
25	0xbe1e18e4	-0.15439183
26	0xbc985580	-0.018595457
27	0xbdba5937	-0.09099048
28	0xbd184652	-0.037176438
29	0xbdfdded2	-0.12396015
30	0xbda1b501	-0.07895852
31	0x3e5ebfb1	0.21752812
32	0xbe03409f	-0.1281762
33	0xbe9c573e	-0.3053531
34	0xbe02783b	-0.12741177
35	0xbd47a6cc	-0.048743054
36	0xbea36279	-0.31911066
37	0xbcc5fe93	-0.024169242
38	0xbd944864	-0.0724037
39	0x3ea73d1e	0.32663816
40	0x3d6576cf	0.056021508
41	0xbe4559b3	-0.19272499
42	0xbcfe1b0d	-0.031018758
43	0xbe0ec69f	-0.13942955
44	0x3d95b3fd	0.07309721
45	0xbdf3b6a6	-0.11900072
46	0x3e441b4d	0.1915104
47	0xbea77290	-0.32704592
48	0x3d952d9c	0.0728409
49	0xbe732916	-0.23746142
50	0x3d796e56	0.06089624
51	0x3e3a13d5	0.18171628
52	0xbea668a1	-0.325017
53	0x3e9ec945	0.3101293
54	0xbd29b858	-0.04143557
55	0x3de60d96	0.1123306
56	0x3d048578	0.03235385
57	0x3c9cb8b2	0.019131038
58	0xbe536500	-0.20643997
59	0x3df3e1b1	0.119082816
60	0xbe5af434	-0.21382219
61	0xbe075d06	-0.1321908
62	0xbe45826c	-0.19288033
63	0x3dda8da7	0.10671549
64	0x3df9a411	0.12189496
65	0x3e5870e4	0.21136814
66	0xbdb1a604	-0.08674243
67	0x3de42f19	0.11141796
68	0xbc3730b0	-0.011181042
69	0x3de390c8	0.11111599
70	0x3e8afde8	0.2714684
71	0xbcd4ace2	-0.025961343
72	0x3de7cb3e	0.11318062
73	0xbdf715d1	-0.12064708
74	0x3e0a5c5f	0.135118
75	0xbd448987	-0.04798272
76	0x3e81cc80	0.25351334
77	0xbe829c2b	-0.25509772
78	0xbe146312	-0.14490917
79	0x3db4a18f	0.08819877
80	0xbdc5787a	-0.0964212
81	0xbd8976db	-0.06712123
82	0x3d2706ff	0.040778156
83	0xbd32e655	-0.043676693
84	0x3e1c22f7	0.15247713
85	0xbeb6f2cf	-0.35732123
86	0xbe272ce7	-0.16325723
87	0x3defb7c4	0.117049724
88	0x3e2ed5be	0.17073724
89	0xbe432c60	-0.19059896
90	0xbe7dbc34	-0.24778825
91	0x3db0db28	0.08635551
92	0xbd1d35e4	-0.038381472
93	0x3e454444	0.19264323
94	0xbd4c8cf2	-0.049939103
95	0xbe102ff4	-0.14080793
96	0x3dde0574	0.10840884
97	0xbcd9d4b4	-0.026590683
98	0x3d28e42b	0.041233223
99	0xbee4ee80	-0.4471321
100	0xbe7b7eff	-0.24560164
101	0xbbe8bfbe	-0.0071029356
102	0x3d4a7396	0.049426638
103	0xbd90be1f	-0.07067513
104	0xb98c9b0e	-0.00026818406
105	0x3d809264	0.06277922
106	0xbd8666df	-0.0656259
107	0xbd665af5	-0.056239087
108	0xbca761e7	-0.020432426
109	0x3d082146	0.033234857
110	0xbd88f26f	-0.066868655
111	0xbdbd4661	-0.09241939
112	0x3ddd6407	0.10810094
113	0xbe9106ab	-0.283254
114	0xbe0503cb	-0.12989728
115	0x3d8c1a58	0.06840962
116	0xbdbef837	-0.09324687
117	0xbda9a6a9	-0.08283741
118	0x3cdcc770	0.026950568
119	0x3d95f807	0.07322698
120	0xbdafd7e5	-0.085861005
121	0xbdac4a9d	-0.08412669
122	0xbdba1846	-0.09086661
123	0x3e96e1bf	0.29469106
124	0xbd4fc160	-0.050721526
125	0x3d4f085e	0.05054509
126	0x3d87caba	0.06630464
127	0xbd9b8c5b	-0.0759513

actor_target.feature_layer.2.weight f4 [256, 128]
0	0x3b08ace6	0.0020855009
1	0xbadf8b34	-0.0017055036
2	0x3d7a575e	0.061118476
3	0x3d336605	0.043798465
4	0xbd5a0074	-0.05322309
5	0x3dad6f43	0.08468487
6	0xbdcc1f53	-0.09966912
7	0x3bec9c84	0.0072208066
8	0x3c127d67	0.008941031
9	0xbd4258fb	-0.04744814
10	0xbc53bbc4	-0.012923185
11	0xbd851ebf	-0.06500005
12	0xbd1cc187	-0.0382705
13	0xbe13bc28	-0.14427245
14	0xbd4ae093	-0.049530577
15	0x3cbcb539	0.023035632
16	0x3bb42ff8	0.0054988824
17	0xbdcc54d7	-0.099771194
18	0x3d384995	0.04499205
19	0x3d1a734b	0.03770761
20	0xbd1ba848	-0.038002282
21	0xbdc3b56b	-0.09556087
22	0x3d132497	0.035923567
23	0xbdc82943	-0.09773495
24	0xbd7f10be	-0.062271826
25	0xbd643c61	-0.055721644
26	0xbcbe2212	-0.023209605
27	0xbdea580d	-0.114425756
28	0xbdcdec43	-0.10054829
29	0xbd6fa385	-0.058505554
30	0x3daff67d	0.08591936
31	0xbc83c5d3	-0.01608554
32	0xbe1e33d8	-0.15449464
33	0x3d00d629	0.03145424
34	0xb9ae1001	-0.0003319979
35	0xbc879b13	-0.016553437
36	0xbd54ad2c	-0.051922962
37	0xbcd697d0	-0.026195437
38	0xbcfa2112	-0.030533347
39	0xbd93029c	-0.07178232
40	0xbdca218f	-0.09869682
41	0xbd8a7e87	-0.067624144
42	0xbca9595d	-0.020672495
43	0xbd947754	-0.072493225
44	0xbd84c22a	-0.06482346
45	0xbc48d13b	-0.012256916
46	0xbd0c71bf	-0.034288164
47	0xbdaf51e1	-0.08560539
48	0xbd863d13	-0.06554618
49	0x3cdbdef7	0.026839716
50	0xbcdfa6f0	-0.027301282
51	0xbdd7b300	-0.105321884
52	0xbc31c2e2	-0.010849686
53	0xbde78a79	-0.113057084
54	0xbe1a5c40	-0.15074253
55	0x3d1bd083	0.03804065
56	0xbdd04e08	-0.10171133
57	0x3ccfe48e	0.025377538
58	0xbe098103	-0.1342812
59	0xbcccceb7	-0.025000913
60	0x3d42f27e	0.04759454
61	0xbd59fd54	-0.05322011
62	0xbd4036e3	-0.046927344
63	0xbdcf02c7	-0.101079516
64	0x3ce11814	0.027477302
65	0xbcad34dd	-0.021143371
66	0x3d87ad0a	0.066248015
67	0xbdff1d3e	-0.124567494
68	0x3cb7d6bd	0.022441262
69	0xbc800b0a	-0.015630264
70	0xbd9fd184	-0.07803634
71	0xbd45362f	-0.048147377
72	0x3c36a92d	0.011148733
73	0xbde78f29	-0.113066025
74	0xbe00a330	-0.12562251
75	0xbd57935c	-0.052630767
76	0xbe193cc0	-0.1496458
77	0xbcae9661	-0.02131194
78	0x3d23212c	0.039826557
79	0xbd9e6c17	-0.0773546
80	0xbd9189a8	-0.07106334
81	0xbbfffce0	-0.0078121275
82	0xbdc35bf7	-0.09539025
83	0xbc8e3617	-0.017359776
84	0x3c29f088	0.0103722885
85	0xbdc6ea83	-0.09712698
86	0xbc9940a8	-0.018707588
87	0xbd97fd38	-0.074213445
88	0xbdbd743e	-0.09250687
89	0xbd8ee70b	-0.06977662
90	0xbd2a3355	-0.04155286
91	0xbe04dfdb	-0.12976019
92	0xbcbe3e96	-0.023223203
93	0xbdff8a9e	-0.12477611
94	0xbd499acb	-0.049219888
95	0xbd8213d7	-0.063514404
96	0xbc872408	-0.016496673
97	0x3d8b0036	0.067871496
98	0x3d321fd9	0.043487404
99	0x3d0376ea	0.032095827
100	0xbc906e74	-0.017630793
101	0xbd1bb1a8	-0.038011223
102	0xbc8149ac	-0.0157822
103	0xbddacfe0	-0.1068418
104	0xbe29f859	-0.16598643
105	0xbda65db0	-0.08123338
106	0xbc66cc3d	-0.01408678
107	0x3d2fa12c	0.042878315
108	0x3ce4dc88	0.027937189
109	0x3c5b6d4b	0.013392757
110	0x3c989d5f	0.018629728
111	0xbc1b7ee0	-0.009490699
112	0xbd8dfab7	-0.06932586
113	0xbc38e7ca	-0.011285732
114	0xbdb5d1f2	-0.088779345
115	0xbded7c59	-0.11595983
116	0xbae1287d	-0.0017178204
117	0xbdc38ebf	-0.09548711
118	0x3cd6ecf3	0.026236033
119	0xbc79b8e0	-0.015241832
120	0xbbe7c63d	-0.0070731924
121	0x3d850492	0.06495012
122	0xbc50de2c	-0.012748282
123	0x3ccfff1e	0.025390204
124	0xbb58b0e8	-0.0033064429
125	0xbca17e09	-0.019713419
126	0x3c6b60e4	0.014366362
127	0xbe138258	-0.14405191
128	0xbd680265	-0.05664291
129	0xbd0bba27	-0.034113076
130	0xbd710067	-0.058838274
131	0xbca0e421	-0.01964003
132	0xbb5e0ebc	-0.0033883294
133	0x3d140c50	0.036144555
134	0xbd8595e3	-0.06522729
135	0xbd732916	-0.059365354
136	0xbd7a061e	-0.06104099
137	0xbcf394e6	-0.029734086
138	0x3d7db3e9	0.061939154
139	0xbe10fd6c	-0.14159173
140	0x3c5885ef	0.013215526
141	0xbc367b7a	-0.011137838
142	0x3cdd77f3	0.027034735
143	0x3cae306c	0.021263324
144	0xbd82d46b	-0.06388172
145	0xbd6fa70a	-0.05850891
146	0xbc9df490	-0.019281656
147	0xbcfa22a2	-0.030534092
148	0xbdc21adf	-0.094777815
149	0xbd235391	-0.039874617
150	0xbd8f5e85	-0.0700045
151	0xbd30ac5e	-0.043133132
152	0xbcb1ecae	-0.021719303
153	0xbdff5c86	-0.12468819
154	0x3d66a5f5	0.056310613
155	0xbdd51960	-0.104052305
156	0xbcaaee0d	-0.020865465
157	0xbc1839c4	-0.009291116
158	0x3db15ff5	0.086608805
159	0xbc4dc008	-0.012557991
160	0x39d46d1b	0.0004051708
161	0xbdb208ce	-0.086930856
162	0x3c9f5250	0.01944843
163	0xbdac3f8d	-0.08410559
164	0xbcd83f3c	-0.02639734
165	0x3d84062b	0.06446489
166	0xbd989144	-0.07449582
167	0xbda46759	-0.080275245
168	0x3d6d0728	0.057868153
169	0xbd8c9fd7	-0.068664245
170	0x3bf1583d	0.007365255
171	0xbd73db4f	-0.05953532
172	0x3c650974	0.013979305
173	0x3d0b40aa	0.033997215
174	0xbc5163c4	-0.012780134
175	0x3d07f09e	0.033188455
176	0xbc84759b	-0.01616936
177	0x3cbe84e5	0.023256728
178	0xbdb2f6b2	-0.0873846
179	0x3d27ba20	0.040948987
180	0x3d816b16	0.06319253
181	0xbd840db3	-0.064479254
182	0xbdd4bd94	-0.10387722
183	0xbc182380	-0.009285808
184	0xbd2b8e35	-0.041883666
185	0xbdd36700	-0.1032238
186	0xbdb05542	-0.08610012
187	0xbd0a1127	-0.033707764
188	0xbd485b59	-0.04891524
189	0x3d64d06c	0.05586283
190	0xbd01672f	-0.031592544
191	0x3d0b8baa	0.03406874
192	0xbd808291	-0.062749036
193	0xbe06ef33	-0.13177185
194	0xbd8009dc	-0.062518805
195	0xbd9875ec	-0.07444367
196	0xbdefe0d9	-0.11712808
197	0xbdb0cc66	-0.08632736
198	0xbdc20dfb	-0.09475323
199	0x3cd70dc3	0.02625168
200	0xbd14dc0c	-0.036342666
201	0xbc2aa49d	-0.010415223
202	0x3c8a39c6	0.016873252
203	0xbdb133ea	-0.0865248
204	0x3c2878c0	0.010282695
205	0x3d8bdc87	0.06829172
206	0x3d18d7f7	0.037315335
207	0xbdaf5414	-0.085609585
208	0xbbc63287	-0.006048504
209	0xbd920a77	-0.07130902
210	0x3d820242	0.06348087
211	0xbda17e09	-0.078853674
212	0x3d96caf7	0.07362931
213	0x3cd96c67	0.026540948
214	0xbda82eed	-0.082120754
215	0xbdb61139	-0.08890004
216	0x3d0ae092	0.033905573
217	0x3c4be582	0.012444856
218	0xbc47e997	-0.012201688
219	0xbd1e1f88	-0.03860429
220	0x3cd69cdf	0.026197849
221	0xbd319146	-0.043351434
222	0xbdaf5119	-0.0856039
223	0xbd77f40a	-0.06053547
224	0xbbbb88b0	-0.0057230815
225	0x3d6f8c14	0.0584832
226	0xbcb7ec3a	-0.022451509
227	0xbd7ab6ae	-0.061209373
228	0xbce7c831	-0.0282937
229	0xbaf44256	-0.0018635492
230	0x3bf4ceb0	0.007470928
231	0xbd9cbe68	-0.076535046
232	0xbe0a406b	-0.13501136
233	0xbd710636	-0.058843814
234	0x3ccabdce	0.024748709
235	0xbd910348	-0.07080704
236	0x3d288928	0.041146427
237	0x3c438946	0.011934584
238	0xbd066b8f	-0.03281742
239	0x3d69c914	0.05707653
240	0x3c3fdab2	0.011709856
241	0xbd8347a7	-0.06410151
242	0x3d846bc3	0.064658664
243	0x3d04b1c2	0.032396086
244	0x3c3aee89	0.01140941
245	0xbdb97bd6	-0.09056823
246	0xbe017607	-0.1264268
247	0xbd68a29c	-0.0567957
248	0xbd83ab43	-0.0642915
249	0x3db4d9c7	0.088306
250	0xbe02d727	-0.12777387
251	0xbc85eb6f	-0.016347615
252	0x3c82ba3e	0.015957948
253	0x3d8675b6	0.0656542
254	0xbca7000c	-0.020385765
255	0xbd6b0af5	-0.057383496
